backend/manya/DQN_model.pth (torch, 45966 bytes, 14 tensors)

fc1.weight f4 [128, 6]
0.24929115 -0.27794394 0.038346913 -0.31957558 -0.049340446 0.009608568 0.39872694 0.10994481
-0.03624951 -0.037316825 0.19706097 -0.12185893 -0.34101248 0.10602104 0.37479267 -0.32394662
0.15093414 0.15460066 0.17753397 0.21691701 -0.12710139 0.32060358 -0.16357447 -0.10860015
-0.32390544 0.29752004 0.31643286 -0.09313776 0.13323158 0.3506354 0.26908883 0.26893973
-0.2284014 -0.38927105 0.18083787 0.1555123 0.39012033 0.020888846 0.31087017 0.1360805
0.15788735 -0.20937663 0.10824668 -0.2086259 0.09770356 -0.06328782 0.39872548 -0.3501546
0.25709003 -0.26641747 -0.40213966 -0.027167374 0.37618002 0.11016537 -0.32017088 0.15273191
0.04518667 -0.05924189 0.24094254 0.31581962 -0.27721992 -0.19584313 -0.29298896 -0.32875288
-0.24689406 0.14446062 0.032623675 -0.24499814 0.040356908 0.31280532 -0.23264232 0.16495872
-0.20816255 0.3049367 -0.10510634 -0.38414818 0.34717748 -0.06299406 0.40257686 0.12501308
-0.27078304 0.33353478 0.11156348 -0.15642233 0.07956683 -0.2244985 0.20284708 -0.12123892
0.12188672 0.20529129 0.36339784 0.041556887 -0.08575834 0.30504203 -0.1951501 0.114274815
-0.15326156 -0.29206988 -0.14549434 -0.22801545 0.11677912 0.393928 0.3334618 0.21016334
-0.30643693 -0.37680438 0.030601317 0.20950244 -0.014294419 -0.18346895 -0.3484673 -0.2288133
0.14262544 -0.0058985366 0.21164729 -0.38364807 -0.34298357 0.23143627 0.24459158 0.39862323
0.39679545 -0.008400896 0.26322743 0.17896298 0.15432663 -0.39538088 0.031103414 -0.0028216634
0.09686926 0.2795708 0.10298057 -0.26031765 0.32512736 0.10775967 -0.17054534 -0.0336103
-0.22168952 0.26752192 0.39744312 -0.2833185 -0.2483309 -0.29882643 -0.18071869 -0.39029652
-0.30859438 0.37128496 -0.20552814 0.26711404 0.3827516 -0.34619686 -0.14815633 -0.049624562
-0.08725772 0.30027714 0.0060578235 0.17627876 0.31993815 -0.19148324 0.16847037 0.008418124
-0.032654822 -0.19871768 -0.12547387 0.12811989 -0.22082442 -0.2820548 -0.13250911 -0.13594404
0.28284422 -0.022970868 -0.33889487 -0.08183379 0.3249636 0.02221069 0.28288248 0.07353655
0.23495503 -0.22112119 -0.08204116 -0.40646443 -0.14041995 0.026866369 0.07668482 0.16477261
-0.2888703 -0.24472488 -0.36621618 0.2919815 0.38651207 0.09685194 0.24531531 -0.005128576
-0.32903245 0.26404557 0.09096815 0.22726662 0.25379407 -0.10118247 0.29295164 0.33275223
-0.37231898 -0.2721387 0.3718839 0.2566407 0.32856447 -0.32960463 -0.1960901 0.21627732
0.17358956 -0.19906512 -0.26029748 0.2993181 0.005051439 0.26628718 -0.36148673 -0.30273575
-0.18461555 0.09488156 -0.0047558355 0.23969948 -0.32788566 -0.17690864 0.27439904 -0.15429932
-0.09584993 -0.0020116013 0.29403058 -0.38998467 -0.10473316 0.31076065 -0.30136523 0.27779377
0.28167704 -0.08153176 0.40213436 -0.11449839 -0.38154185 0.3821357 0.26397365 -0.29488006
-0.2603849 0.080866724 -0.23285316 -0.09761065 0.0015081414 -0.020255104 0.27121714 0.40531588
-0.3126364 -0.19658169 0.22663054 -0.36629605 -0.07878967 -0.15538421 0.3532842 -0.27190283
00000000: 2e46 7f3e ab4e 8ebe a711 1d3d 699f a3be
00000010: 3519 4abd 416d 1d3c f025 cc3e bf2a e13d
00000020: 5e7a 14bd 87d9 18bd 5aca 493e 2d91 f9bd
00000030: 3099 aebe 8f21 d93d d3e4 bf3e 55dc a5be
00000040: 7b8e 1a3e a34f 1e3e 77cb 353e 7e1f 5e3e
00000050: de26 02be 2726 a43e 1180 27be c169 debd
00000060: efd6 a5be 8c54 983e 7d03 a23e 03bf bebd
00000070: dc6d 083e 7c86 b33e 03c6 893e 78b2 893e
00000080: 0ee2 69be 894e c7be 902d 393e 9e3e 1f3e
00000090: dabd c73e 161f ab3c 602a 9f3e b058 0b3e
000000a0: 39ad 213e d466 56be 6fb0 dd3d 07a2 55be
000000b0: ce18 c83d 0b9d 81bd bf25 cc3e 7747 b3be
000000c0: 4ea1 833e df67 88be 40e5 cdbe 1d8e debc
000000d0: ab9a c03e 629e e13d 70ed a3be c165 1c3e
000000e0: a815 393d a0a7 72bd a4b9 763e 1cb3 a13e
000000f0: c5ef 8dbe 1a8b 48be a602 96be 4c52 a8be
00000100: ccd1 7cbe 7ced 133e 67a0 053d cbe0 7abe
00000110: 494d 253d 0528 a03e ca39 6ebe f0ea 283e
00000120: 9028 55be aa20 9c3e fe41 d7bd 12af c4be
00000130: 3fc1 b13e 0803 81bd 8e1e ce3e 6e03 003e
00000140: 13a4 8abe 12c5 aa3e 657b e43d 2d2d 20be
00000150: eff3 a23d efe2 65be 25b7 4f3e 1c4c f8bd
00000160: bf9f f93d e137 523e 480f ba3e 8e37 2a3d
00000170: 12a2 afbd 782e 9c3e 6ed5 47be ea08 ea3d
00000180: 99f0 1cbe 2f8a 95be 78fc 14be e27c 69be
00000190: e429 ef3d eeb0 c93e 81bb aa3e 0f35 573e
000001a0: 4de5 9cbe 81ec c0be 9daf fa3c cf87 563e
000001b0: 2433 6abc 49df 3bbe 4e6a b2be 094e 6abe
000001c0: 670c 123e 8348 c1bb 11ba 583e 856d c4be
000001d0: 8b9b afbe a1fd 6c3e 3776 7a3e 5818 cc3e
000001e0: c628 cb3e e9a3 09bc bfc5 863e 1242 373e
000001f0: cd07 1e3e 5d6f cabe 96cc fe3c a8eb 38bb
00000200: 6463 c63d e723 8f3e 7ae7 d23d 5b48 85be
00000210: 1877 a63e 1ab1 dc3d 70a3 2ebe f4aa 09bd
00000220: 9402 63be a2f8 883e aa7d cb3e 1f0f 91be
00000230: 754a 7ebe c7ff 98be 520e 39be f2d4 c7be
00000240: 1500 9ebe 1019 be3e f875 52be 2cc3 883e
00000250: 05f8 c33e b740 b1be 4bb6 17be 2043 4bbd
00000260: 2db4 b2bd edbd 993e b580 c63b 6b82 343e
00000270: efce a33e 2f14 44be 7f83 2c3e 2cec 093c
00000280: 10c1 05bd a67c 4bbe 397c 00be dc31 033e
00000290: cc1f 62be 7d69 90be 78b0 07be ea34 0bbe
000002a0: f5d0 903e 672d bcbc a183 adbe 7998 a7bd
000002b0: a161 a63e 31f3 b53c f9d5 903e 559a 963d
000002c0: 0d98 703e 986d 62be 3205 a8bd 1b1c d0be
000002d0: 3fca 0fbe dc16 dc3c ee0c 9d3d 27ba 283e
000002e0: cfe6 93be 2999 7abe b080 bbbe 997e 953e
000002f0: e9e4 c53e 4f5a c63d f033 7b3e 9d0d a8bb
00000300: f176 a8be fb30 873e 824d ba3d 95b8 683e
00000310: 4cf1 813e c138 cfbd c2fd 953e 805e aa3e
00000320: 98a0 bebe c455 8bbe 9167 be3e 6966 833e
00000330: 9a39 a83e f0c1 a8be d8cb 48be cd77 5d3e
00000340: 76c1 313e bad7 4bbe b645 85be 3940 993e
00000350: 8b86 a53b cb56 883e ca14 b9be 2e00 9bbe
00000360: dc0b 3dbe 4351 c23d d7d6 9bbb c873 753e
00000370: a1e0 a7be 8a27 35be 087e 8c3e a400 1ebe
00000380: f84c c4bd 12d5 03bb 2d8b 963e 12ac c7be
00000390: 577e d6bd 051c 9f3e 8b4c 9abe fc3a 8e3e
000003a0: f937 903e 20fa a6bd 8ee4 cd3e 227e eabd
000003b0: 7459 c3be 4aa7 c33e 8e27 873e 85fa 96be
000003c0: 2b51 85be 749d a53d 0f71 6ebe 18e8 c7bd
000003d0: d4ac c53a 08ee a5bc f9dc 8a3e 9085 cf3e
000003e0: e111 a0be b64c 49be d611 683e 288b bbbe
000003f0: 7a5c a1bd 0a1d 1fbe abe1 b43e d936 8bbe

fc1.bias f4 [128]
-0.259848 0.11455655 -0.36387897 0.18270999 -0.25860038 -0.07592167 0.01587381 0.29480374
-0.14329164 0.39247712 -0.1900024 -0.22177008 -0.29069084 0.18289308 0.1550761 0.20500746
-0.0997229 -0.08320036 -0.13968536 0.2099277 -0.08465852 -0.31197834 0.13321143 -0.25050905
-0.07081816 0.3596399 -0.10197808 0.39349267 -0.3224977 0.041921355 -0.14455955 -0.2016413
-0.1200967 0.31078458 -0.27965128 -0.037714873 -0.034598287 0.40583238 -0.23651174 0.20039237
-0.064719945 0.33161852 0.39382857 0.34253642 0.06053434 0.011019958 0.2652072 0.016645327
0.04775512 0.018701654 -0.16904299 0.083781295 0.13373174 0.23867056 0.039608553 -0.07134576
-0.08244096 -0.27552968 0.07410031 -0.16300064 0.107556485 0.32216826 0.030272279 -0.06773535
0.09575016 0.23279017 0.12289058 -0.06348964 -0.37899277 -0.17508027 0.16918549 0.19258633
-0.27193412 -0.328985 0.17018934 -0.20026413 0.011636131 0.39287013 -0.29575753 -0.23253034
-0.0891061 -0.28587887 0.2450511 -0.3781267 0.039729442 0.23341335 -0.39389825 0.10331876
0.29213062 0.25375885 -0.22585654 -0.015908265 -0.3047714 -0.35438713 0.20117751 -0.25991043
-0.3906589 -0.18356343 0.13849652 0.1395012 0.33399475 -0.25548857 -0.14146239 0.019348098
0.20211163 0.17447764 0.05365745 0.1727925 -0.32935244 -0.21053219 0.26832783 0.056890935
0.18590397 -0.29016015 0.0814462 0.21324094 -0.0065595317 -0.35746777 0.16635044 -0.30350038
-0.0670232 0.14843573 0.15494728 0.10254758 -0.19587807 -0.28237864 -0.21844028 -0.3117959
00000000: cc0a 85be a09c ea3d 584e babe 5418 3b3e
00000010: 4567 84be d27c 9bbd cb09 823c 84f0 963e
00000020: 0bbb 12be c3f2 c83e fd8f 42be b217 63be
00000030: 6ed5 94be 5348 3b3e 45cc 1e3e 7aed 513e
00000040: 853b ccbd f364 aabd ae09 0fbe 49f7 563e
00000050: 7261 adbd a0bb 9fbe 9468 083e b942 80be
00000060: 1d09 91bd b922 b83e e2d9 d0bd df77 c93e
00000070: 6b1e a5be bab5 2b3d 6b07 14be 0f7b 4ebe
00000080: 42f5 f5bd 281f 9f3e 742e 8fbe e97a 1abd
00000090: efb6 0dbd 43c9 cf3e 2230 72be a833 4d3e
000000a0: e48b 84bd e7c9 a93e e6a3 c93e ef60 af3e
000000b0: dbf2 773d 0e8d 343c 3dc9 873e c85b 883c
000000c0: df9a 433d 3634 993c 9b19 2dbe 8795 ab3d
000000d0: f9f0 083e 0e66 743e 943c 223d ba1d 92bd
000000e0: ced6 a8bd 3a12 8dbe e7c1 973d a4e9 26be
000000f0: 9346 dc3d 3df3 a43e 92fd f73c d5b8 8abd
00000100: a918 c43d 8c60 6e3e 0eae fb3d db06 82bd
00000110: 570b c2be 3e48 33be f63e 2d3e 5a35 453e
00000120: f33a 8bbe b970 a8be 1d46 2e3e 0a12 4dbe
00000130: 79a5 3e3c 4626 c93e 886d 97be 6f1c 6ebe
00000140: 427d b6bd b75e 92be adee 7a3e d399 c1be
00000150: 57bb 223d e903 6f3e 08ad c9be c998 d33d
00000160: 2592 953e aeec 813e f046 67be 0d52 82bc
00000170: ff0a 9cbe 3b72 b5be 7a01 4e3e fb12 85be
00000180: 7104 c8be 0df8 3bbe 08d2 0d3e 67d9 0e3e
00000190: 5c01 ab3e 66cf 82be 84db 10be e77f 9e3c
000001a0: 5af6 4e3e 44aa 323e eac7 5b3d 84f0 303e
000001b0: e2a0 a8be c095 57be 4462 893e 7806 693d
000001c0: 9c5d 3e3e df8f 94be 44cd a63d d55b 5a3e
000001d0: 57f1 d6bb 0406 b7be c557 2a3e 6764 9bbe
000001e0: 7643 89bd 89ff 173e 80aa 1e3e 7704 d23d
000001f0: 4394 48be ef93 90be cfae 5fbe b6a3 9fbe

bn1.weight f4 [128]
1.0 1.0 1.0 1.0 1.0 1.0 1.0 1.0
1.0 1.0 1.0 1.0 1.0 1.0 1.0 1.0
1.0 1.0 1.0 1.0 1.0 1.0 1.0 1.0
1.0 1.0 1.0 1.0 1.0 1.0 1.0 1.0
1.0 1.0 1.0 1.0 1.0 1.0 1.0 1.0
1.0 1.0 1.0 1.0 1.0 1.0 1.0 1.0
1.0 1.0 1.0 1.0 1.0 1.0 1.0 1.0
1.0 1.0 1.0 1.0 1.0 1.0 1.0 1.0
1.0 1.0 1.0 1.0 1.0 1.0 1.0 1.0
1.0 1.0 1.0 1.0 1.0 1.0 1.0 1.0
1.0 1.0 1.0 1.0 1.0 1.0 1.0 1.0
1.0 1.0 1.0 1.0 1.0 1.0 1.0 1.0
1.0 1.0 1.0 1.0 1.0 1.0 1.0 1.0
1.0 1.0 1.0 1.0 1.0 1.0 1.0 1.0
1.0 1.0 1.0 1.0 1.0 1.0 1.0 1.0
1.0 1.0 1.0 1.0 1.0 1.0 1.0 1.0
00000000: 0000 803f 0000 803f 0000 803f 0000 803f
00000010: 0000 803f 0000 803f 0000 803f 0000 803f
00000020: 0000 803f 0000 803f 0000 803f 0000 803f
00000030: 0000 803f 0000 803f 0000 803f 0000 803f
00000040: 0000 803f 0000 803f 0000 803f 0000 803f
00000050: 0000 803f 0000 803f 0000 803f 0000 803f
00000060: 0000 803f 0000 803f 0000 803f 0000 803f
00000070: 0000 803f 0000 803f 0000 803f 0000 803f
00000080: 0000 803f 0000 803f 0000 803f 0000 803f
00000090: 0000 803f 0000 803f 0000 803f 0000 803f
000000a0: 0000 803f 0000 803f 0000 803f 0000 803f
000000b0: 0000 803f 0000 803f 0000 803f 0000 803f
000000c0: 0000 803f 0000 803f 0000 803f 0000 803f
000000d0: 0000 803f 0000 803f 0000 803f 0000 803f
000000e0: 0000 803f 0000 803f 0000 803f 0000 803f
000000f0: 0000 803f 0000 803f 0000 803f 0000 803f
00000100: 0000 803f 0000 803f 0000 803f 0000 803f
00000110: 0000 803f 0000 803f 0000 803f 0000 803f
00000120: 0000 803f 0000 803f 0000 803f 0000 803f
00000130: 0000 803f 0000 803f 0000 803f 0000 803f
00000140: 0000 803f 0000 803f 0000 803f 0000 803f
00000150: 0000 803f 0000 803f 0000 803f 0000 803f
00000160: 0000 803f 0000 803f 0000 803f 0000 803f
00000170: 0000 803f 0000 803f 0000 803f 0000 803f
00000180: 0000 803f 0000 803f 0000 803f 0000 803f
00000190: 0000 803f 0000 803f 0000 803f 0000 803f
000001a0: 0000 803f 0000 803f 0000 803f 0000 803f
000001b0: 0000 803f 0000 803f 0000 803f 0000 803f
000001c0: 0000 803f 0000 803f 0000 803f 0000 803f
000001d0: 0000 803f 0000 803f 0000 803f 0000 803f
000001e0: 0000 803f 0000 803f 0000 803f 0000 803f
000001f0: 0000 803f 0000 803f 0000 803f 0000 803f

bn1.bias f4 [128]
0.0 0.0 0.0 0.0 0.0 0.0 0.0 0.0
0.0 0.0 0.0 0.0 0.0 0.0 0.0 0.0
0.0 0.0 0.0 0.0 0.0 0.0 0.0 0.0
0.0 0.0 0.0 0.0 0.0 0.0 0.0 0.0
0.0 0.0 0.0 0.0 0.0 0.0 0.0 0.0
0.0 0.0 0.0 0.0 0.0 0.0 0.0 0.0
0.0 0.0 0.0 0.0 0.0 0.0 0.0 0.0
0.0 0.0 0.0 0.0 0.0 0.0 0.0 0.0
0.0 0.0 0.0 0.0 0.0 0.0 0.0 0.0
0.0 0.0 0.0 0.0 0.0 0.0 0.0 0.0
0.0 0.0 0.0 0.0 0.0 0.0 0.0 0.0
0.0 0.0 0.0 0.0 0.0 0.0 0.0 0.0
0.0 0.0 0.0 0.0 0.0 0.0 0.0 0.0
0.0 0.0 0.0 0.0 0.0 0.0 0.0 0.0
0.0 0.0 0.0 0.0 0.0 0.0 0.0 0.0
0.0 0.0 0.0 0.0 0.0 0.0 0.0 0.0
00000000: 0000 0000 0000 0000 0000 0000 0000 0000
00000010: 0000 0000 0000 0000 0000 0000 0000 0000
00000020: 0000 0000 0000 0000 0000 0000 0000 0000
00000030: 0000 0000 0000 0000 0000 0000 0000 0000
00000040: 0000 0000 0000 0000 0000 0000 0000 0000
00000050: 0000 0000 0000 0000 0000 0000 0000 0000
00000060: 0000 0000 0000 0000 0000 0000 0000 0000
00000070: 0000 0000 0000 0000 0000 0000 0000 0000
00000080: 0000 0000 0000 0000 0000 0000 0000 0000
00000090: 0000 0000 0000 0000 0000 0000 0000 0000
000000a0: 0000 0000 0000 0000 0000 0000 0000 0000
000000b0: 0000 0000 0000 0000 0000 0000 0000 0000
000000c0: 0000 0000 0000 0000 0000 0000 0000 0000
000000d0: 0000 0000 0000 0000 0000 0000 0000 0000
000000e0: 0000 0000 0000 0000 0000 0000 0000 0000
000000f0: 0000 0000 0000 0000 0000 0000 0000 0000
00000100: 0000 0000 0000 0000 0000 0000 0000 0000
00000110: 0000 0000 0000 0000 0000 0000 0000 0000
00000120: 0000 0000 0000 0000 0000 0000 0000 0000
00000130: 0000 0000 0000 0000 0000 0000 0000 0000
00000140: 0000 0000 0000 0000 0000 0000 0000 0000
00000150: 0000 0000 0000 0000 0000 0000 0000 0000
00000160: 0000 0000 0000 0000 0000 0000 0000 0000
00000170: 0000 0000 0000 0000 0000 0000 0000 0000
00000180: 0000 0000 0000 0000 0000 0000 0000 0000
00000190: 0000 0000 0000 0000 0000 0000 0000 0000
000001a0: 0000 0000 0000 0000 0000 0000 0000 0000
000001b0: 0000 0000 0000 0000 0000 0000 0000 0000
000001c0: 0000 0000 0000 0000 0000 0000 0000 0000
000001d0: 0000 0000 0000 0000 0000 0000 0000 0000
000001e0: 0000 0000 0000 0000 0000 0000 0000 0000
000001f0: 0000 0000 0000 0000 0000 0000 0000 0000

bn1.running_mean f4 [128]
0.0 0.0 0.0 0.0 0.0 0.0 0.0 0.0
0.0 0.0 0.0 0.0 0.0 0.0 0.0 0.0
0.0 0.0 0.0 0.0 0.0 0.0 0.0 0.0
0.0 0.0 0.0 0.0 0.0 0.0 0.0 0.0
0.0 0.0 0.0 0.0 0.0 0.0 0.0 0.0
0.0 0.0 0.0 0.0 0.0 0.0 0.0 0.0
0.0 0.0 0.0 0.0 0.0 0.0 0.0 0.0
0.0 0.0 0.0 0.0 0.0 0.0 0.0 0.0
0.0 0.0 0.0 0.0 0.0 0.0 0.0 0.0
0.0 0.0 0.0 0.0 0.0 0.0 0.0 0.0
0.0 0.0 0.0 0.0 0.0 0.0 0.0 0.0
0.0 0.0 0.0 0.0 0.0 0.0 0.0 0.0
0.0 0.0 0.0 0.0 0.0 0.0 0.0 0.0
0.0 0.0 0.0 0.0 0.0 0.0 0.0 0.0
0.0 0.0 0.0 0.0 0.0 0.0 0.0 0.0
0.0 0.0 0.0 0.0 0.0 0.0 0.0 0.0
00000000: 0000 0000 0000 0000 0000 0000 0000 0000
00000010: 0000 0000 0000 0000 0000 0000 0000 0000
00000020: 0000 0000 0000 0000 0000 0000 0000 0000
00000030: 0000 0000 0000 0000 0000 0000 0000 0000
00000040: 0000 0000 0000 0000 0000 0000 0000 0000
00000050: 0000 0000 0000 0000 0000 0000 0000 0000
00000060: 0000 0000 0000 0000 0000 0000 0000 0000
00000070: 0000 0000 0000 0000 0000 0000 0000 0000
00000080: 0000 0000 0000 0000 0000 0000 0000 0000
00000090: 0000 0000 0000 0000 0000 0000 0000 0000
000000a0: 0000 0000 0000 0000 0000 0000 0000 0000
000000b0: 0000 0000 0000 0000 0000 0000 0000 0000
000000c0: 0000 0000 0000 0000 0000 0000 0000 0000
000000d0: 0000 0000 0000 0000 0000 0000 0000 0000
000000e0: 0000 0000 0000 0000 0000 0000 0000 0000
000000f0: 0000 0000 0000 0000 0000 0000 0000 0000
00000100: 0000 0000 0000 0000 0000 0000 0000 0000
00000110: 0000 0000 0000 0000 0000 0000 0000 0000
00000120: 0000 0000 0000 0000 0000 0000 0000 0000
00000130: 0000 0000 0000 0000 0000 0000 0000 0000
00000140: 0000 0000 0000 0000 0000 0000 0000 0000
00000150: 0000 0000 0000 0000 0000 0000 0000 0000
00000160: 0000 0000 0000 0000 0000 0000 0000 0000
00000170: 0000 0000 0000 0000 0000 0000 0000 0000
00000180: 0000 0000 0000 0000 0000 0000 0000 0000
00000190: 0000 0000 0000 0000 0000 0000 0000 0000
000001a0: 0000 0000 0000 0000 0000 0000 0000 0000
000001b0: 0000 0000 0000 0000 0000 0000 0000 0000
000001c0: 0000 0000 0000 0000 0000 0000 0000 0000
000001d0: 0000 0000 0000 0000 0000 0000 0000 0000
000001e0: 0000 0000 0000 0000 0000 0000 0000 0000
000001f0: 0000 0000 0000 0000 0000 0000 0000 0000

bn1.running_var f4 [128]
1.0 1.0 1.0 1.0 1.0 1.0 1.0 1.0
1.0 1.0 1.0 1.0 1.0 1.0 1.0 1.0
1.0 1.0 1.0 1.0 1.0 1.0 1.0 1.0
1.0 1.0 1.0 1.0 1.0 1.0 1.0 1.0
1.0 1.0 1.0 1.0 1.0 1.0 1.0 1.0
1.0 1.0 1.0 1.0 1.0 1.0 1.0 1.0
1.0 1.0 1.0 1.0 1.0 1.0 1.0 1.0
1.0 1.0 1.0 1.0 1.0 1.0 1.0 1.0
1.0 1.0 1.0 1.0 1.0 1.0 1.0 1.0
1.0 1.0 1.0 1.0 1.0 1.0 1.0 1.0
1.0 1.0 1.0 1.0 1.0 1.0 1.0 1.0
1.0 1.0 1.0 1.0 1.0 1.0 1.0 1.0
1.0 1.0 1.0 1.0 1.0 1.0 1.0 1.0
1.0 1.0 1.0 1.0 1.0 1.0 1.0 1.0
1.0 1.0 1.0 1.0 1.0 1.0 1.0 1.0
1.0 1.0 1.0 1.0 1.0 1.0 1.0 1.0
00000000: 0000 803f 0000 803f 0000 803f 0000 803f
00000010: 0000 803f 0000 803f 0000 803f 0000 803f
00000020: 0000 803f 0000 803f 0000 803f 0000 803f
00000030: 0000 803f 0000 803f 0000 803f 0000 803f
00000040: 0000 803f 0000 803f 0000 803f 0000 803f
00000050: 0000 803f 0000 803f 0000 803f 0000 803f
00000060: 0000 803f 0000 803f 0000 803f 0000 803f
00000070: 0000 803f 0000 803f 0000 803f 0000 803f
00000080: 0000 803f 0000 803f 0000 803f 0000 803f
00000090: 0000 803f 0000 803f 0000 803f 0000 803f
000000a0: 0000 803f 0000 803f 0000 803f 0000 803f
000000b0: 0000 803f 0000 803f 0000 803f 0000 803f
000000c0: 0000 803f 0000 803f 0000 803f 0000 803f
000000d0: 0000 803f 0000 803f 0000 803f 0000 803f
000000e0: 0000 803f 0000 803f 0000 803f 0000 803f
000000f0: 0000 803f 0000 803f 0000 803f 0000 803f
00000100: 0000 803f 0000 803f 0000 803f 0000 803f
00000110: 0000 803f 0000 803f 0000 803f 0000 803f
00000120: 0000 803f 0000 803f 0000 803f 0000 803f
00000130: 0000 803f 0000 803f 0000 803f 0000 803f
00000140: 0000 803f 0000 803f 0000 803f 0000 803f
00000150: 0000 803f 0000 803f 0000 803f 0000 803f
00000160: 0000 803f 0000 803f 0000 803f 0000 803f
00000170: 0000 803f 0000 803f 0000 803f 0000 803f
00000180: 0000 803f 0000 803f 0000 803f 0000 803f
00000190: 0000 803f 0000 803f 0000 803f 0000 803f
000001a0: 0000 803f 0000 803f 0000 803f 0000 803f
000001b0: 0000 803f 0000 803f 0000 803f 0000 803f
000001c0: 0000 803f 0000 803f 0000 803f 0000 803f
000001d0: 0000 803f 0000 803f 0000 803f 0000 803f
000001e0: 0000 803f 0000 803f 0000 803f 0000 803f
000001f0: 0000 803f 0000 803f 0000 803f 0000 803f

fc2.weight f4 [64, 128]
-0.010836618 -0.0046435185 -0.05666864 0.045462605 -0.06979621 -0.03195241 0.058165357 -0.06145626
-0.008050817 0.019738212 0.057788923 -0.023051376 -0.037698418 -0.08367071 0.08028104 0.08767356
-0.08139987 -0.057022758 -0.0709601 -0.08171816 -0.034786556 0.050055314 0.0855068 -0.02651494
-0.063308746 0.019918442 -0.0069411537 -0.06386647 -0.08231688 -0.04408889 -0.00592375 -0.033968538
-0.005548506 0.050364558 -0.04141165 0.069654115 -0.085658684 0.047485884 -0.078820124 0.08672266
-0.05268728 0.07793085 -0.023478586 0.080698684 -0.03612043 -0.06386799 -0.041513506 0.062767826
-0.061453044 -0.009684408 0.05881935 -0.065943696 -0.058685113 -0.049018648 0.048868816 -0.066634886
-0.03716925 -0.062441155 -0.08346154 0.0009699676 -0.06787588 -0.012003949 -0.012588715 -0.07140961
-0.04570616 0.048673443 -0.037720963 0.08662446 -0.035969965 0.06638624 0.030941993 0.07923588
-0.061348584 -0.04191958 -0.035975453 -0.06542947 -0.056895714 -0.014041275 -0.07721166 0.066964485
-0.015260425 0.082200944 0.013609164 0.012223945 0.008050133 -0.0073526334 0.03796786 0.0071035773
0.029584285 0.0875037 0.08163652 0.030588223 -0.0787956 0.0027428851 -0.0537168 -0.04649363
0.02486997 0.06701903 -0.08464664 -0.014071389 0.0039268956 0.053205308 -0.071090676 -0.0030055128
-0.03864434 -0.040872063 0.08791203 0.028573034 -0.01219479 -0.07020047 -0.0097738225 0.031130884
0.046110917 -0.047840666 -0.0050914655 0.002105372 0.043765362 0.054445393 0.06767831 -0.017516598
0.06522749 -0.03248733 0.038223494 -0.0016820913 0.05801602 -0.074135125 -0.05925221 0.050675757
-0.013546671 0.0052878805 0.05071034 -0.030651653 0.0071293605 0.08801314 0.056738984 -0.08122776
-0.0008493327 0.006268522 -0.051120143 -0.014219156 -0.0019754332 -0.0621358 -0.021633081 0.014935937
-0.04234437 0.025865974 0.08178996 0.07669914 0.0011480907 -0.077231064 -0.005419684 0.02704147
-0.034363367 0.0035336865 -0.053179458 0.06118183 -0.010950414 -0.06294401 -0.079059124 -0.0180581
-0.023267262 -0.079598434 -0.017092085 -0.027782338 5.8373385e-05 -0.0607519 0.08071474 0.07647122
-0.035374712 0.07516529 -0.053860847 0.034117527 0.06915321 0.07116588 -0.085219085 -0.006003829
-0.05588314 0.034838933 -0.07094979 0.070260406 0.07386803 0.029601933 -0.05987006 0.030036267
-0.056520093 0.022079732 0.030868689 -0.048960242 0.080988996 -0.041116305 -0.012481526 0.06154017
-0.059173543 -0.07890702 0.08219551 -0.047183502 -0.08548993 -0.044243716 -0.0690718 0.058625497
-0.023013169 -0.085771196 -0.00717352 -0.025555499 0.017940238 0.030319536 -0.0003029621 0.037859987
0.06336122 0.0074782837 -0.0047773556 0.08640974 -0.025088713 -0.058038663 0.06738712 0.06887621
0.013712709 -0.06994347 0.08719976 0.013225312 0.051531993 -0.00684115 0.072042115 -0.026685562
0.01600182 0.07221303 -0.06782492 -0.0094012655 -0.034349795 0.012223629 0.001776047 -0.08509974
-0.001545978 -0.032732684 -0.08131984 0.07217276 -0.074685805 0.025862202 -0.06890051 0.033839144
-0.005199804 0.055062223 0.088358946 -0.054857325 -0.03556216 0.027312748 0.073808424 0.023548678
0.011038523 0.00994437 0.061339576 0.013004347 0.02343272 -0.018609604 0.059432704 -0.060578793
00000000: 128c 31bc a828 98bb 601d 68bd ff36 3a3d
00000010: 51f1 8ebd 88e0 02bd cc3e 6e3d 8fb9 7bbd
00000020: 93e7 03bc 08b2 a13c 14b4 6c3d 3dd6 bcbc
00000030: a869 1abd 8d5b abbd 636a a43d 328e b33d
00000040: fab4 a6bd b290 69bd 8753 91bd da5b a7bd
00000050: 597c 0ebd cd06 4d3d 301e af3d dc35 d9bc
00000060: 04a8 81bd 002c a33c 9e72 e3bb 6ccc 82bd
00000070: c195 a8bd 8d96 34bd 041c c2bb 9822 0bbd
00000080: 3ed0 b5bb 114b 4e3d 439f 29bd d1a6 8e3d
00000090: d26d afbd 8f80 423d 726c a1bd a69b b13d
000000a0: 9ece 57bd 369a 9f3d 2a56 c0bc 5a45 a53d
000000b0: 04f3 13bd 39cd 82bd 110a 2abd 6b8c 803d
000000c0: 30b6 7bbd 5aab 1ebc 8fec 703d 7d0d 87bd
000000d0: cd5f 70bd c7c7 48bd ab2a 483d df77 88bd
000000e0: c93e 18bd 4cc2 7fbd e2ed aabd 6c45 7e3a
000000f0: 8202 8bbd 36ac 44bc e640 4ebc 343f 92bd
00000100: 6236 3bbd ce5d 473d 4c81 1abd 2a68 b13d
00000110: 3e55 13bd 82f5 873d 107a fd3c 6c46 a23d
00000120: a748 7bbd deb3 2bbd ff5a 13bd e3ff 85bd
00000130: 7b0b 69bd 600d 66bc 2621 9ebd ad24 893d
00000140: dd06 7abc f858 a83d f9f8 5e3c f146 483c
00000150: b4e4 033c 5cee f0bb 3084 1b3d 20c5 e83b
00000160: be5a f23c 2435 b33d 0c31 a73d 2794 fa3c
00000170: 965f a1bd fac1 333b 2606 5cbd 1b70 3ebd
00000180: 1bbc cb3c 4641 893d 385b adbd af8b 66bc
00000190: 30ad 803b cfed 593d fd97 91bd 23f8 44bb
000001a0: 8749 1ebd 7769 27bd 390b b43d ff11 ea3c
000001b0: a8cc 47bc 44c5 8fbd 6222 20bc 3206 ff3c
000001c0: cdde 3c3d 93f4 43bd 4fd6 a6bb 48fa 093b
000001d0: 4f43 333d 2202 5f3d ed9a 8a3d f87e 8fbc
000001e0: fe95 853d 6f11 05bd 3d90 1c3d 9e79 dcba
000001f0: 35a2 6d3d 28d4 97bd 72b2 72bd 6291 4f3d
00000200: dbf2 5dbc f545 ad3b a5b5 4f3d 2d19 fbbc
00000210: 699d e93b 3c40 b43d 2367 683d bd5a a6bd
00000220: c1a5 5eba 2c68 cd3b 5b63 51bd 76f7 68bc
00000230: 4576 01bb 1c82 7ebd dc37 b1bc dcb5 743c
00000240: 4a71 2dbd e1e4 d33c 7f81 a73d 7014 9d3d
00000250: 887b 963a 522b 9ebd 9b97 b1bb 1386 dd3c
00000260: 9ac0 0cbd 6c95 673b b4d2 59bd cc99 7a3d
00000270: 5e69 33bc cae8 80bd c0e9 a1bd 95ee 93bc
00000280: fc9a bebc 8104 a3bd b304 8cbc c997 e3bc
00000290: f2d5 7438 fcd6 78bd c54d a53d f19c 9c3d
000002a0: 13e5 10bd 42f0 993d 319d 5cbd d2be 0b3d
000002b0: 33a0 8d3d 6bbf 913d 5887 aebd c5bb c4bb
000002c0: b8e5 64bd 45b3 0e3d 204e 91bd b0e4 8f3d
000002d0: 1f48 973d c17f f23c 4f3a 75bd 9e0e f63c
000002e0: 9d81 67bd 8ee0 b43c 55e0 fc3c 898a 48bd
000002f0: 8fdd a53d 9269 28bd 507f 4cbc 8c11 7c3d
00000300: f55f 72bd 019a a1bd 1f56 a83d 7d43 41bd
00000310: 5815 afbd e638 35bd 8475 8dbd 4a21 703d
00000320: 1d86 bcbc cfa8 afbd d90f ebbb c459 d1bc
00000330: 68f7 923c ad60 f83c e2d6 9eb9 1313 1b3d
00000340: 87c3 813d 640c f53b 5d8b 9cbb 97f7 b03d
00000350: d886 cdbc f3b9 6dbd 4202 8a3d f80e 8d3d
00000360: 45ab 603c 863e 8fbd ca95 b23d fbae 583c
00000370: 3613 533d ba2b e0bb d18a 933d ae9b dabc
00000380: 4016 833c 6de4 933d cbe7 8abd c407 1abc
00000390: 5fb2 0cbd 9e45 483c 40ca e83a c648 aebd
000003a0: 6aa2 caba b512 06bd 048b a6bd 50cf 933d
000003b0: dff4 98bd f8dc d33c b61b 8dbd ea9a 0a3d
000003c0: 1e63 aabb ed88 613d 89f5 b43d 13b2 60bd
000003d0: a1a9 11bd fcbe df3c df28 973d 28e9 c03c
000003e0: ecda 343c b6ed 223c 353f 7b3d 2f10 553c
000003f0: faf5 bf3c 2b73 98bc b56f 733d 7821 78bd

fc2.bias f4 [64]
0.02239873 -0.019876244 -0.02790804 0.015784753 0.029275011 -0.06721272 -0.07747308 0.076168165
0.0730857 -0.057689372 -0.032622747 -0.046394166 0.007251376 0.017808866 0.042571172 0.04266907
-0.07444763 -0.07055569 0.027084365 0.009037675 -0.07460954 -0.053433415 -0.08302261 -0.056146514
0.07283196 -0.018352233 0.034988448 0.023076622 -0.05783105 -0.06685035 0.039268114 -0.053653337
0.05471234 -0.07217686 -0.08528131 0.013420167 -0.07126079 -0.08598604 -0.006601819 0.08710195
0.010618119 0.06482862 0.065414585 -0.07673372 0.0010916244 -0.017854227 -0.05627312 -0.0219774
0.0071825394 -0.018781489 -0.062314462 -0.031745374 0.034470633 0.03546906 0.033459604 -0.088080905
0.024263192 -0.043446425 -0.03912081 -0.0043307785 -0.07165505 0.025665397 -0.07447362 0.02482227
00000000: 8b7d b73c 81d3 a2bc 679f e4bc 074f 813c
00000010: 26d2 ef3c d3a6 89bd 35aa 9ebd 0efe 9b3d
00000020: f5ad 953d b14b 6cbd 6e9f 05bd cf07 3ebd
00000030: f39c ed3b e6e3 913c 1c5f 2e3d c3c5 2e3d
00000040: 0078 98bd 807f 90bd 08e0 dd3c c212 143c
00000050: e3cc 98bd ffdc 5abd c207 aabd e3f9 65bd
00000060: ec28 953d 6c57 96bc 0c50 0f3d 2f0b bd3c
00000070: 40e0 6cbd d6e8 88bd 9ad7 203d 9ac3 5bbd
00000080: 0c1a 603d 76d1 93bd f8a7 aebd 43e0 5b3c
00000090: 2df1 91bd 7319 b0bd 1254 d8bb 8262 b23d
000000a0: 9ef7 2d3c dec4 843d 15f8 853d 9226 9dbd
000000b0: d614 8f3a 0743 92bc a57e 66bd f309 b4bc
000000c0: 825b eb3b a3db 99bc 733d 7fbd 7007 02bd
000000d0: 1431 0d3d 0148 113d f00c 093d c363 b4bd
000000e0: 9ac3 c63c e1f4 31bd 243d 20bd 34e9 8dbb
000000f0: e2bf 92bd 3d40 d23c a085 98bd 1358 cb3c

bn2.weight f4 [64]
1.0 1.0 1.0 1.0 1.0 1.0 1.0 1.0
1.0 1.0 1.0 1.0 1.0 1.0 1.0 1.0
1.0 1.0 1.0 1.0 1.0 1.0 1.0 1.0
1.0 1.0 1.0 1.0 1.0 1.0 1.0 1.0
1.0 1.0 1.0 1.0 1.0 1.0 1.0 1.0
1.0 1.0 1.0 1.0 1.0 1.0 1.0 1.0
1.0 1.0 1.0 1.0 1.0 1.0 1.0 1.0
1.0 1.0 1.0 1.0 1.0 1.0 1.0 1.0
00000000: 0000 803f 0000 803f 0000 803f 0000 803f
00000010: 0000 803f 0000 803f 0000 803f 0000 803f
00000020: 0000 803f 0000 803f 0000 803f 0000 803f
00000030: 0000 803f 0000 803f 0000 803f 0000 803f
00000040: 0000 803f 0000 803f 0000 803f 0000 803f
00000050: 0000 803f 0000 803f 0000 803f 0000 803f
00000060: 0000 803f 0000 803f 0000 803f 0000 803f
00000070: 0000 803f 0000 803f 0000 803f 0000 803f
00000080: 0000 803f 0000 803f 0000 803f 0000 803f
00000090: 0000 803f 0000 803f 0000 803f 0000 803f
000000a0: 0000 803f 0000 803f 0000 803f 0000 803f
000000b0: 0000 803f 0000 803f 0000 803f 0000 803f
000000c0: 0000 803f 0000 803f 0000 803f 0000 803f
000000d0: 0000 803f 0000 803f 0000 803f 0000 803f
000000e0: 0000 803f 0000 803f 0000 803f 0000 803f
000000f0: 0000 803f 0000 803f 0000 803f 0000 803f

bn2.bias f4 [64]
0.0 0.0 0.0 0.0 0.0 0.0 0.0 0.0
0.0 0.0 0.0 0.0 0.0 0.0 0.0 0.0
0.0 0.0 0.0 0.0 0.0 0.0 0.0 0.0
0.0 0.0 0.0 0.0 0.0 0.0 0.0 0.0
0.0 0.0 0.0 0.0 0.0 0.0 0.0 0.0
0.0 0.0 0.0 0.0 0.0 0.0 0.0 0.0
0.0 0.0 0.0 0.0 0.0 0.0 0.0 0.0
0.0 0.0 0.0 0.0 0.0 0.0 0.0 0.0
00000000: 0000 0000 0000 0000 0000 0000 0000 0000
00000010: 0000 0000 0000 0000 0000 0000 0000 0000
00000020: 0000 0000 0000 0000 0000 0000 0000 0000
00000030: 0000 0000 0000 0000 0000 0000 0000 0000
00000040: 0000 0000 0000 0000 0000 0000 0000 0000
00000050: 0000 0000 0000 0000 0000 0000 0000 0000
00000060: 0000 0000 0000 0000 0000 0000 0000 0000
00000070: 0000 0000 0000 0000 0000 0000 0000 0000
00000080: 0000 0000 0000 0000 0000 0000 0000 0000
00000090: 0000 0000 0000 0000 0000 0000 0000 0000
000000a0: 0000 0000 0000 0000 0000 0000 0000 0000
000000b0: 0000 0000 0000 0000 0000 0000 0000 0000
000000c0: 0000 0000 0000 0000 0000 0000 0000 0000
000000d0: 0000 0000 0000 0000 0000 0000 0000 0000
000000e0: 0000 0000 0000 0000 0000 0000 0000 0000
000000f0: 0000 0000 0000 0000 0000 0000 0000 0000

bn2.running_mean f4 [64]
0.0 0.0 0.0 0.0 0.0 0.0 0.0 0.0
0.0 0.0 0.0 0.0 0.0 0.0 0.0 0.0
0.0 0.0 0.0 0.0 0.0 0.0 0.0 0.0
0.0 0.0 0.0 0.0 0.0 0.0 0.0 0.0
0.0 0.0 0.0 0.0 0.0 0.0 0.0 0.0
0.0 0.0 0.0 0.0 0.0 0.0 0.0 0.0
0.0 0.0 0.0 0.0 0.0 0.0 0.0 0.0
0.0 0.0 0.0 0.0 0.0 0.0 0.0 0.0
00000000: 0000 0000 0000 0000 0000 0000 0000 0000
00000010: 0000 0000 0000 0000 0000 0000 0000 0000
00000020: 0000 0000 0000 0000 0000 0000 0000 0000
00000030: 0000 0000 0000 0000 0000 0000 0000 0000
00000040: 0000 0000 0000 0000 0000 0000 0000 0000
00000050: 0000 0000 0000 0000 0000 0000 0000 0000
00000060: 0000 0000 0000 0000 0000 0000 0000 0000
00000070: 0000 0000 0000 0000 0000 0000 0000 0000
00000080: 0000 0000 0000 0000 0000 0000 0000 0000
00000090: 0000 0000 0000 0000 0000 0000 0000 0000
000000a0: 0000 0000 0000 0000 0000 0000 0000 0000
000000b0: 0000 0000 0000 0000 0000 0000 0000 0000
000000c0: 0000 0000 0000 0000 0000 0000 0000 0000
000000d0: 0000 0000 0000 0000 0000 0000 0000 0000
000000e0: 0000 0000 0000 0000 0000 0000 0000 0000
000000f0: 0000 0000 0000 0000 0000 0000 0000 0000

bn2.running_var f4 [64]
1.0 1.0 1.0 1.0 1.0 1.0 1.0 1.0
1.0 1.0 1.0 1.0 1.0 1.0 1.0 1.0
1.0 1.0 1.0 1.0 1.0 1.0 1.0 1.0
1.0 1.0 1.0 1.0 1.0 1.0 1.0 1.0
1.0 1.0 1.0 1.0 1.0 1.0 1.0 1.0
1.0 1.0 1.0 1.0 1.0 1.0 1.0 1.0
1.0 1.0 1.0 1.0 1.0 1.0 1.0 1.0
1.0 1.0 1.0 1.0 1.0 1.0 1.0 1.0
00000000: 0000 803f 0000 803f 0000 803f 0000 803f
00000010: 0000 803f 0000 803f 0000 803f 0000 803f
00000020: 0000 803f 0000 803f 0000 803f 0000 803f
00000030: 0000 803f 0000 803f 0000 803f 0000 803f
00000040: 0000 803f 0000 803f 0000 803f 0000 803f
00000050: 0000 803f 0000 803f 0000 803f 0000 803f
00000060: 0000 803f 0000 803f 0000 803f 0000 803f
00000070: 0000 803f 0000 803f 0000 803f 0000 803f
00000080: 0000 803f 0000 803f 0000 803f 0000 803f
00000090: 0000 803f 0000 803f 0000 803f 0000 803f
000000a0: 0000 803f 0000 803f 0000 803f 0000 803f
000000b0: 0000 803f 0000 803f 0000 803f 0000 803f
000000c0: 0000 803f 0000 803f 0000 803f 0000 803f
000000d0: 0000 803f 0000 803f 0000 803f 0000 803f
000000e0: 0000 803f 0000 803f 0000 803f 0000 803f
000000f0: 0000 803f 0000 803f 0000 803f 0000 803f

fc3.weight f4 [4, 64]
-0.05872059 -0.0199956 0.124709174 0.10826306 -0.028302267 -0.0048338473 -0.09444791 -0.08995399
-0.06504987 -0.08655736 -0.06600694 0.02944222 -0.11865851 0.11090535 -0.05012624 0.023396984
-0.0477594 -0.0014148057 -0.09103945 -0.019735754 -0.10258098 -0.004630983 -0.08624573 0.029781193
0.051293164 0.11075434 -0.11742531 0.047568142 0.020508423 -0.11584777 -0.12492381 0.096937135
-0.020809948 0.05720952 0.069632426 -0.10472269 -0.090803504 -0.095060185 -0.04601863 -0.021501228
0.007978156 -0.052587643 -0.031640768 -0.093509406 -0.10686433 -0.05491008 0.06923671 0.04801543
0.082988724 0.036015376 0.052882567 -0.0527945 0.0381736 -0.12293145 0.046552062 0.06677018
-0.066493526 -0.05711636 0.026165456 0.07002428 -0.057360873 0.11596793 0.02432844 -0.09495632
-0.011274189 -0.01900354 0.020517305 -0.11217803 -0.08029501 0.030215368 -0.07631093 0.09461777
-0.01711519 0.118807495 -0.017088398 -0.086465314 0.06525789 -0.018426746 0.050408214 -0.016304448
-0.061772794 0.07645209 0.05667621 0.07774988 0.095939934 0.096772835 -0.112201735 -0.082334906
0.024635121 0.059783265 0.026181787 0.008363888 -0.107630625 -0.061484426 -0.0026789606 -0.053830087
-0.004288867 0.07649584 0.033481598 -0.01746647 -0.09370755 0.03200747 -0.066142514 0.09733485
-0.07448575 0.04023315 -0.102787584 -0.003218606 -0.016748354 0.0704771 -0.051960856 0.1166697
0.121138245 -0.1233336 0.05410196 0.077917665 -0.0855356 -0.11150189 0.024987742 -0.0022104383
0.036723107 -0.018221542 -0.048658445 0.07782376 -0.01676485 -0.01798226 0.027337864 -0.08626787
0.06755656 -0.0062944293 0.07555081 -0.05582066 -0.08438018 0.012030035 0.109354645 -0.09052755
-0.07119572 0.04649736 -0.10110368 -0.048267156 -0.012344539 -0.015166879 0.07297394 -0.11541121
0.056986466 -0.052445576 0.10821074 -0.08533594 0.114056945 0.110078394 0.1098261 -0.029572994
0.11361244 0.086475834 0.089043155 0.093182996 -0.05773808 0.05631399 0.10283637 -0.041842327
-0.0018562376 -0.038696647 0.042907417 0.0027487278 -0.07231319 0.08310072 -0.025210977 0.047303274
-0.07582502 0.03518705 -0.05668986 0.042797685 0.04505001 -0.048639655 0.03828904 -0.0011558086
-0.08032158 0.0132692605 -0.11747494 0.07744336 0.013555303 0.017008692 -0.12419592 -0.10375513
0.0058623403 -0.061891675 0.032636344 -0.08758204 0.08594194 0.11253755 0.021189481 -0.10810892
-0.04784161 0.08317882 0.008540764 -0.08826098 -0.05832076 0.103190064 0.0118240565 -0.03721139
-0.050451607 -0.059339896 0.006784186 -0.09114595 -0.033823133 -0.007011935 0.11484961 -0.06308177
-0.00946787 0.12409605 -0.002595842 0.062793985 0.07291049 0.07544196 -0.08007716 -0.09895885
-0.1073498 -0.005550757 0.09987898 0.023386523 0.044245064 -0.031430334 0.039491132 -0.099159434
-0.01907608 -0.044221938 0.005361825 0.055372357 -0.0530985 -0.072579265 0.053060815 -0.077065796
-0.102326736 0.006629601 -0.064137995 -0.10018243 0.004552588 0.030587032 0.048242107 0.024095014
0.019728407 -0.015822664 0.05124782 0.10351367 0.12057707 -0.09721866 0.017653152 0.036643833
0.0844014 0.11707166 0.07294662 0.0076580346 0.01181595 0.111833334 0.07037893 -0.036659077
00000000: 0085 70bd d0cd a3bc 8667 ff3d 06b9 dd3d
00000010: 28da e7bc 4065 9ebb e86d c1bd cc39 b8bd
00000020: de38 85bd fc44 b1bd a62e 87bd d030 f13c
00000030: 3c03 f3bd 5822 e33d 2c51 4dbd 08ab bf3c
00000040: 5c9f 43bd 0071 b9ba e472 babd e0ac a1bc
00000050: fa15 d2bd 80bf 97bb 9aa1 b0bd b0f7 f33c
00000060: c818 523d 2cd3 e23d ae7c f0bd d0d6 423d
00000070: 4801 a83c 9841 edbd 0ed8 ffbd fa86 c63d
00000080: a079 aabc 8854 6a3d 729b 8e3d da78 d6bd
00000090: 30f7 b9bd eaae c2bd 087e 3cbd 5823 b0bc
000000a0: d0b6 023c 2466 57bd c099 01bd dc81 bfbd
000000b0: b0db dabd 64e9 60bd facb 8d3d d4ab 443d
000000c0: fef5 a93d dc84 133d 649b 583d 0c3f 58bd
000000d0: ec5b 1c3d 7cc3 fbbd 60ad 3e3d cebe 883d
000000e0: c22d 88bd d8f2 69bd f058 d63c e468 8f3d
000000f0: 3cf3 6abd 9880 ed3d 704c c73c 7678 c2bd
00000100: 60b7 38bc 50ad 9bbc e813 a83c 98bd e5bd
00000110: b671 a4bd 3886 f73c e848 9cbd f6c6 c13d
00000120: 2835 8cbc 5851 f33d f8fc 8bbc ba14 b1bd
00000130: eea5 853d b0f3 96bc d878 4e3d e890 85bc
00000140: 7805 7dbd ea92 9c3d 5025 683d 543b 9f3d
00000150: 287c c43d d630 c63d 06ca e5bd 349f a8bd
00000160: 98cf c93c 4cdf 743d 307b d63c b008 093c
00000170: 726d dcbd 18d7 7bbd 8091 2fbb f07c 5cbd
00000180: a089 8cbb daa9 9c3d 0024 093d d815 8fbc
00000190: bee9 bfbd 441a 033d ba75 87bd 7e57 c73d
000001a0: fc8b 98bd 84cb 243d 4c82 d2bd 40ef 52bb
000001b0: d833 89bc 4c56 903d e8d4 54bd 86f0 ee3d
000001c0: 5417 f83d 5496 fcbd 049a 5d3d 4c93 9f3d
000001d0: 4a2d afbd 1a5b e4bd 18b3 cc3c 00dd 10bb
000001e0: f86a 163d 5845 95bc 144e 47bd 1062 9f3d
000001f0: 7056 89bc 884f 93bc a8f3 df3c 36ad b0bd
00000200: 185b 8a3d 8041 cebb 62ba 9a3d 34a4 64bd
00000210: 84cf acbd a019 453c 54f5 df3d 8266 b9bd
00000220: 10cf 91bd 0474 3e3d 720f cfbd c8b3 45bd
00000230: c040 4abc 807e 78bc 5c73 953d b65c ecbd
00000240: a46a 693d 2cd1 56bd 989d dd3d 9cc4 aebd
00000250: b096 e93d c870 e13d 82ec e03d 1043 f2bc
00000260: a4ad e83d 3e1a b13d 425c b63d bad6 be3d
00000270: c47e 6cbd 80a9 663d e09b d23d dc62 2bbd
00000280: 004d f3ba 6080 1ebd b0bf 2f3d 0024 343b
00000290: f018 94bd b630 aa3d 4087 cebc 14c1 413d
000002a0: 264a 9bbd 4c20 103d a033 68bd a04c 2f3d
000002b0: 5c86 383d 603a 47bd f8d4 1c3d 807e 97ba
000002c0: a47f a4bd 5067 593c b496 f0bd a09a 9e3d
000002d0: 1017 5e3c d055 8b3c 6e5a febd 927d d4bd
000002e0: e018 c03b 2082 7dbd b0ad 053d 365e b3bd
000002f0: 5402 b03d 167a e63d 9095 ad3c 3668 ddbd
00000300: 90f5 43bd a859 aa3d 90ee 0b3c 2cc2 b4bd
00000310: c0e1 6ebd 5055 d33d b0b9 413c f86a 18bd
00000320: 58a6 4ebd 640e 73bd e04d de3b baaa babd
00000330: 208a 0abd 60c4 e5bb 4636 eb3d 0431 81bd
00000340: 201f 1bbc 1226 fe3d 001f 2abb 229a 803d
00000350: 1852 953d 5081 9a3d 7eff a3bd f0aa cabd
00000360: 36da dbbd 20e3 b5bb 5a8d cc3d 1895 bf3c
00000370: 503a 353d 18bd 00bd 74c1 213d 1a14 cbbd
00000380: 7045 9cbc 1022 35bd 40b2 af3b 20ce 623d
00000390: d07d 59bd 70a4 94bd 4c56 593d acd4 9dbd
000003a0: ae90 d1bd 203d d93b c85a 83bd 722c cdbd
000003b0: e02d 953b a891 fa3c 8499 453d e862 c53c
000003c0: 789d a13c 889e 81bc 3ce9 513d fafe d33d
000003d0: 1cf1 f63d 941a c7bd 589d 903c d817 163d
000003e0: a4da ac3d 44c3 ef3d 0a65 953d 40f0 fa3b
000003f0: b097 413c e008 e53d d422 903d d427 16bd

fc3.bias f4 [4]
-0.02745609 0.051883444 -0.012340695 0.096581444
00000000: 98eb e0bc bc83 543d a030 4abc 7ecc c53d
